old_pth/chess_model.pth (torch, 223280 bytes, 7 tensors)

conv1.weight f4 [32, 12, 3, 3]
0	0xbe0d0789	-0.13772406
1	0xbdfa725d	-0.12228844
2	0xbe753dfa	-0.23949423
3	0x3d0f9df5	0.03506275
4	0x3cce5a43	0.025189525
5	0xbe2b5c17	-0.16734348
6	0xbe8d6db3	-0.27622756
7	0xbea7df35	-0.3278748
8	0xbdf27b85	-0.11839966
9	0xbe1767df	-0.14785717
10	0xbc82705c	-0.015922718
11	0x3d83a6b4	0.064282805
12	0x3e6adaa8	0.22934973
13	0xbdf74b8b	-0.120749556
14	0xbe4e338c	-0.20136851
15	0xbdbf1236	-0.09329645
16	0xbce33a24	-0.027737685
17	0xbdc829f9	-0.09773631
18	0xbebdea19	-0.37092665
19	0xbc7e45ea	-0.0155195985
20	0x39d2c2f5	0.00040199576
21	0xbd5767e6	-0.05258932
22	0xbe0f1261	-0.13971855
23	0xb9f80c97	-0.00047311626
24	0x3e141ccc	0.1446411
25	0x3d243efd	0.040099133
26	0x3d24d4a1	0.04024184
27	0xbe34f5e9	-0.17671932
28	0x3e0c250d	0.13686009
29	0xbe9d9d7b	-0.3078421
30	0xbe1d788e	-0.15378019
31	0xbe0f445d	-0.13990922
32	0xbd956ec0	-0.072965145
33	0xbe23504c	-0.159486
34	0xbe3c8b24	-0.18412453
35	0x3d0b787a	0.034050442
36	0xbba01be9	-0.0048861396
37	0x3d6818d8	0.056664318
38	0xbe04afab	-0.12957637
39	0x3da6f367	0.08151894
40	0xbc94843f	-0.018129466
41	0xbc11581b	-0.008871104
42	0xbe21489c	-0.15750355
43	0x3e10ce20	0.1414113
44	0xbda75346	-0.0817018
45	0xbe82e62d	-0.25566235
46	0xbe32e833	-0.1747139
47	0xbd844f7d	-0.06460474
48	0xbc2ba570	-0.010476455
49	0xbe03e1f2	-0.1287916
50	0xbd39d3a4	-0.04536785
51	0xbdadb684	-0.08482078
52	0xbc856c9a	-0.016287137
53	0xbe5ea3d5	-0.21742184
54	0x3df1f496	0.11814229
55	0x3d004d09	0.031323466
56	0xbe286768	-0.16445696
57	0xbeaee4ea	-0.34159023
58	0xbd41e62a	-0.047338642
59	0xbe750d10	-0.23930764
60	0xbe3aab0a	-0.18229309
61	0xbea207ed	-0.31646672
62	0xbdb40e91	-0.08791841
63	0x3c150294	0.009094853
64	0x3a4ecefa	0.0007889118
65	0xbe65d322	-0.22443822
66	0xbe88a2c6	-0.26686686
67	0xbdba4b94	-0.09096447
68	0xbdb146ed	-0.08656106
69	0xbe15aeff	-0.14617537
70	0xbe66d881	-0.22543527
71	0xbec8b43f	-0.39200017
72	0xbd45f706	-0.048331283
73	0xbe14c004	-0.14526373
74	0x3d705ad1	0.05868036
75	0xbe8a1106	-0.26966113
76	0xbe82332b	-0.25429663
77	0xbda4fa46	-0.08055548
78	0xbd94199c	-0.07231447
79	0xbee08ad1	-0.4385591
80	0xbe8580dd	-0.26074877
81	0xbe69329d	-0.22773214
82	0xbd73cb3f	-0.059520002
83	0xbdf33204	-0.11874774
84	0xbe08c284	-0.13355452
85	0xbe449e44	-0.19200999
86	0xbe834441	-0.2563801
87	0x3e601d2b	0.21886127
88	0xbe04ecde	-0.12980983
89	0xbdcb7b36	-0.0993561
90	0xbe4ded9a	-0.20110169
91	0xbe0808f4	-0.13284665
92	0xbe3e3295	-0.18573983
93	0xbe1f797a	-0.15573683
94	0xbe27bdb8	-0.16380966
95	0xbe855bad	-0.26046506
96	0xbea75a3b	-0.32686028
97	0xbe437411	-0.19087245
98	0xbe8f59c3	-0.2799817
99	0xbe4280dc	-0.18994468
100	0xbddb0e4a	-0.10696085
101	0xbe1b3f5d	-0.1516089
102	0xbe2bb31b	-0.16767542
103	0x3e2dc2f1	0.16968895
104	0xbe5740bf	-0.21020792
105	0xbeaf8b7b	-0.34286103
106	0x3d5c58f9	0.05379579
107	0xbdc60c54	-0.0967032
108	0xbd7df3d8	-0.062000126
109	0x3e03001b	0.12793009
110	0xbe87614f	-0.26441428
111	0xbe8b364c	-0.27189863
112	0xbe25218e	-0.16126081
113	0xbd34842b	-0.044071358
114	0x3e23c054	0.15991336
115	0x3d3c1993	0.045922827
116	0xbf569572	-0.83821785
117	0xbe3fbae3	-0.18723635
118	0xbd79c280	-0.060976505
119	0xbda24263	-0.079228185
120	0x3e209143	0.15680413
121	0x3ddbabfb	0.10726162
122	0xbf08089a	-0.53138125
123	0xbc23dc54	-0.010001261
124	0xbdcf22b9	-0.10114045
125	0xbe4d4247	-0.20044814
126	0xbeebb0f9	-0.46033457
127	0x3e6e920d	0.23297901
128	0x3c8de1a1	0.017319502
129	0x3e8b553e	0.27213472
130	0xbf402f30	-0.75072
131	0x3f1fc3a0	0.62407875
132	0x3e54759c	0.2074799
133	0x3e960287	0.29298803
134	0xbdafbb3c	-0.08580634
135	0xbdf22e2a	-0.11825211
136	0xbc37c7e5	-0.011217092
137	0x3df26f10	0.1183759
138	0xbeb9f6fb	-0.36321244
139	0xbe820c74	-0.25400126
140	0xbee54d6e	-0.44785637
141	0xbd9d1d03	-0.07671549
142	0xbf041a01	-0.5160218
143	0xbecf254b	-0.4045814
144	0xbd2be728	-0.041968495
145	0x3e6557c6	0.22396764
146	0xbe072a58	-0.13199747
147	0xba1307f0	-0.0005608788
148	0x3ed224f8	0.4104383
149	0x3eed8620	0.46391392
150	0xbea13d72	-0.31492192
151	0x3f40f411	0.75372416
152	0x3e053b01	0.1301079
153	0xbf32e5dc	-0.6988199
154	0xbebc1e36	-0.367418
155	0xbf103bca	-0.5634123
156	0xbf0d9754	-0.55309033
157	0xbf725bb0	-0.94671154
158	0xbe84ba9c	-0.25923622
159	0xbf45ee95	-0.7731717
160	0xbe58180f	-0.21102928
161	0xbf41aee5	-0.7565749
162	0x3dd9b032	0.1062931
163	0xbf175089	-0.5910726
164	0xbe4ef285	-0.20209701
165	0x3d271b4f	0.040797528
166	0xbe8e0e61	-0.27745345
167	0xbe150f78	-0.14556682
168	0x3ece4ac7	0.40291426
169	0xbf076152	-0.52882874
170	0x3e99e08e	0.30054134
171	0xbdb72177	-0.0894193
172	0xbe95516d	-0.29163685
173	0xbe42ac68	-0.1901108
174	0xbe8cef38	-0.2752626
175	0x3c91233a	0.017716993
176	0x3e8eb2d9	0.27870825
177	0x3c82145d	0.01587885
178	0xbe654a06	-0.22391519
179	0xbeec6cea	-0.46176845
180	0x3d90accb	0.07064208
181	0x3e0e5fad	0.13903685
182	0xbdf23c81	-0.118279465
183	0xbe5ec3c2	-0.21754363
184	0xbef6e8d3	-0.48224506
185	0xbe0ad21b	-0.13556711
186	0x3eea2e7c	0.4573859
187	0xbd8bf117	-0.068330936
188	0xbe99b641	-0.3002186
189	0xbe49dc69	-0.19712986
190	0xbf09d436	-0.53839433
191	0xbe87249e	-0.26395124
192	0xbdee4dc5	-0.11635927
193	0xbe783a61	-0.2424102
194	0xbf0494a4	-0.5178931
195	0xbb48a41d	-0.0030615397
196	0x3da78f00	0.08181572
197	0xbc275a0b	-0.010214339
198	0xbe70938b	-0.23493783
199	0xbe1a7407	-0.15083323
200	0x3d7fe6be	0.062475912
201	0xbd35f51b	-0.044423204
202	0xbe882666	-0.26591796
203	0x3e828235	0.25489965
204	0xbd4568b5	-0.04819556
205	0x3e110e1d	0.1416554
206	0xbd862926	-0.06550817
207	0x3dcf50f3	0.10122862
208	0xbdb8d8cf	-0.09025728
209	0xbe2fed26	-0.17180309
210	0xbef416d5	-0.4767367
211	0x3debaa0d	0.11507044
212	0xbcc06662	-0.02348632
213	0xbee1794b	-0.44037852
214	0xbea12a46	-0.31477565
215	0xbf462b96	-0.77410257
216	0xbe1d9cb4	-0.15391809
217	0xbe8271c8	-0.25477433
218	0xbe0da1c2	-0.13831237
219	0x3e4d9b8c	0.20078868
220	0x3de3b4df	0.11118483
221	0xbc963114	-0.01833395
222	0xbf2e93d4	-0.6819432
223	0x3d1f4a84	0.038889423
224	0xbe56d9e6	-0.20981559
225	0x3e2a208a	0.16613975
226	0x3e31d19d	0.17365117
227	0x3ea1f672	0.31633335
228	0xbe471980	-0.19443321
229	0x3bbe54c0	0.005808443
230	0xbe0859df	-0.13315533
231	0x3e034443	0.12819009
232	0x3d993644	0.074810535
233	0xbe9b9c7d	-0.3039283
234	0x3dcd5017	0.100250416
235	0x3e7e806a	0.24853674
236	0xbe49a28d	-0.19690914
237	0xbdd5c852	-0.10438599
238	0xbe84cc9a	-0.2593735
239	0x3c5697ed	0.013097745
240	0x3eb0a05a	0.3449734
241	0xbe8ef7ec	-0.27923524
242	0xbe497cf9	-0.1967658
243	0xbea5fde6	-0.32420272
244	0xbea3398a	-0.31879836
245	0xbe84233f	-0.2580814
246	0x3e982600	0.29716492
247	0x3dc5b027	0.09652739
248	0xbd9d0aad	-0.07668052
249	0xbe797e9b	-0.24364702
250	0xbe4e19dd	-0.20127054
251	0xbb86ed73	-0.0041176616
252	0x3d869f15	0.06573311
253	0x3eb4a9a5	0.35285679
254	0x3ef61994	0.4806639
255	0xbeac22a7	-0.33620188

conv1.bias f4 [32]
0	0xbf39d648	-0.7259259
1	0xbee11b25	-0.43966022
2	0xbf3b0776	-0.7305826
3	0xbe96d76e	-0.29461235
4	0xbf41579d	-0.7552431
5	0xbf22948f	-0.6350793
6	0xbea4deeb	-0.32201323
7	0xbe83b9e8	-0.25727773
8	0xbf73fe97	-0.9531035
9	0xbea7c7d5	-0.32769647
10	0xbf81fb27	-1.0154771
11	0xbe6d9e42	-0.23204902
12	0xbf145b8e	-0.579522
13	0xbf4a875b	-0.79112786
14	0xbf0002fc	-0.50004554
15	0xbf147fe6	-0.5800766
16	0xbf2adc77	-0.6674265
17	0xbf67fbda	-0.9061867
18	0xbf206cc8	-0.62665987
19	0xbecfe8ae	-0.40607208
20	0xbf18c845	-0.5968059
21	0xbf26426c	-0.649451
22	0xbe8f71fd	-0.28016654
23	0xbefe7b33	-0.4970337
24	0xbf2abd6e	-0.66695297
25	0xbf3a3871	-0.7274237
26	0xbe83614b	-0.25660166
27	0xbf1b8c6b	-0.60761136
28	0xbf1adb43	-0.60490817
29	0xbf2d2209	-0.6763006
30	0xbed75e6a	-0.4206422
31	0xbf5bfe6d	-0.859351

conv2.weight f4 [64, 32, 3, 3]
0	0x3df222c3	0.118230365
1	0x3d2d0b00	0.04224682
2	0x3de63083	0.112397216
3	0xbea8760d	-0.32902566
4	0x3ef9e0d2	0.48804337
5	0xbe93b5b1	-0.28849557
6	0x3ebef01d	0.37292567
7	0x3df6f87d	0.12059114
8	0x3e9ecb27	0.31014368
9	0xbf3984f3	-0.7246849
10	0x3efefbe2	0.49801546
11	0xbdbf54bd	-0.093423344
12	0xbf01bedc	-0.50681853
13	0x3e8c7cdf	0.2743902
14	0xbeae95dd	-0.34098712
15	0xbf46eac8	-0.77702
16	0xbe34d16f	-0.17658018
17	0xbc17fb25	-0.009276186
18	0xbf1fadea	-0.62374747
19	0xbd541531	-0.051778022
20	0xbf01fb97	-0.5077452
21	0xbe8f44eb	-0.27982268
22	0xbf0bcf61	-0.5461331
23	0xbe84834f	-0.2588143
24	0xbe374813	-0.17898588
25	0xbe1d810d	-0.1538126
26	0xbe473ea8	-0.19457495
27	0x3e1a0cb6	0.15043911
28	0x3ea0f9ea	0.3144067
29	0x3e58bcac	0.21165723
30	0xbf4c71b2	-0.79860985
31	0x3e61f957	0.22067772
32	0xbe37cc72	-0.17949083
33	0xbf4776ce	-0.77915657
34	0xbf2c1e44	-0.6723368
35	0xbee7faa6	-0.45308417
36	0xbe1c9eb3	-0.15294914
37	0xbe7ef507	-0.24898158
38	0x3e90eaf6	0.2830426
39	0xbd854df2	-0.065090075
40	0xbe79abfc	-0.24382013
41	0x3eb9dd82	0.3630181
42	0x3d1f5439	0.03889868
43	0xbeaa5f87	-0.33276007
44	0x3eee3e1d	0.46531764
45	0x3e891661	0.26774886
46	0xbda91a49	-0.082569666
47	0xbe96ede0	-0.2947836
48	0xbe6c2f2f	-0.23064874
49	0xbda23390	-0.07919991
50	0x3c4f623e	0.0126577
51	0x3f360c9e	0.71113
52	0x3e62a543	0.22133355
53	0xbe310b24	-0.17289406
54	0xbed337de	-0.4125356
55	0x3e87ac63	0.26498708
56	0xbe4700e3	-0.19433932
57	0xbf306d59	-0.6891685
58	0x3d5e9e87	0.054350402
59	0x3d1480ae	0.03625553
60	0xbef8eea5	-0.4861957
61	0xbecc532b	-0.39907202
62	0x3dcfd44d	0.10147915
63	0xbe0c2963	-0.13687663
64	0xbf4ea426	-0.8071922
65	0xbfa544cb	-1.2911619
66	0xbf12d60c	-0.5735786
67	0xbf30d895	-0.6908048
68	0xbed4e676	-0.41582078
69	0x3e97eea7	0.29674265
70	0xbe3aec68	-0.18254244
71	0xbd66618e	-0.05624538
72	0x3c92fe51	0.017943533
73	0xbe7bc483	-0.24586682
74	0xbcda9fd1	-0.026687535
75	0xbf18a8a0	-0.596323
76	0xbdd9e5ee	-0.10639559
77	0xbf0b345d	-0.54376775
78	0xbed81e0d	-0.42210427
79	0xbe60125f	-0.21882008
80	0xbb1f2c2c	-0.0024287803
81	0xbf33cbad	-0.7023266
82	0x3e9c2bc5	0.30502144
83	0x3e98c0d8	0.29834628
84	0xbe260d05	-0.16215904
85	0xbe8a9133	-0.27063903
86	0x3e09aeb9	0.13445558
87	0xbe522789	-0.20522894
88	0xbe0d380f	-0.13790916
89	0x3e6d0947	0.2314807
90	0xbf517642	-0.8182107
91	0x3e75aa25	0.23990686
92	0xbea8f477	-0.32999012
93	0xbef59104	-0.479622
94	0xbb62792b	-0.0034557085
95	0xbed76339	-0.42067888
96	0xbd86dc5b	-0.06584998
97	0xbc922601	-0.017840387
98	0xbc05eb40	-0.008173764
99	0xbf8c48e9	-1.095975
100	0x3e81b227	0.25331232
101	0x3e69037f	0.2275524
102	0xbed351f6	-0.4127347
103	0xbec2566f	-0.3795657
104	0xbdc49bb8	-0.096000135
105	0xbef61ceb	-0.48068938
106	0xbf16bf23	-0.588854
107	0xbe6dfeee	-0.23241779
108	0xbe7e07ea	-0.24807706
109	0x3e2a7c87	0.16649066
110	0xbe751862	-0.23935083
111	0x3c9e9045	0.019355902
112	0xbe7fa104	-0.24963766
113	0xbf0ea571	-0.55721194
114	0xbeca8769	-0.39556435
115	0xbd4cb499	-0.04997692
116	0x3dbd430b	0.09241303
117	0x3ed961b1	0.42457345
118	0xbdc535a0	-0.09629369
119	0x3e510c1b	0.20414774
120	0xbf06aec9	-0.5261045
121	0x3ec272bc	0.3797816
122	0xbd364f25	-0.04450907
123	0xbd27008f	-0.040772017
124	0xbe137188	-0.14398777
125	0x3bb3376b	0.005469253
126	0xbeadede2	-0.33970553
127	0x3dae5505	0.0851231
128	0xbf2454aa	-0.6419169
129	0x3ea290b7	0.31751034
130	0xbf12a0a8	-0.5727639
131	0xbeb4db8a	-0.35323745
132	0xbb6cacc1	-0.0036113712
133	0xbeea6de2	-0.4578696
134	0xbd09d7dd	-0.03365313
135	0xbea7d3d1	-0.3277879
136	0xbcc3e3fc	-0.023912422
137	0xbf02a66b	-0.51035184
138	0xbe98c738	-0.29839492
139	0x3e6eb646	0.2331172
140	0xbea01f9d	-0.3127412
141	0x3bc1db93	0.005916068
142	0x3ec42860	0.38312054
143	0x3ede6d05	0.4344255
144	0xbea631a9	-0.32459763
145	0xbde7bafc	-0.11314961
146	0xbd90ebb7	-0.07076209
147	0xbec1c80b	-0.37847933
148	0x3e193e4f	0.14965175
149	0x3d8d62e9	0.06903631
150	0x3d026149	0.03183106
151	0xbe9ae0ab	-0.30249533
152	0x3e9eb128	0.30994534
153	0xbaeb40e2	-0.0017948414
154	0x3e7c6915	0.2464946
155	0xbec80f17	-0.39074013
156	0xbf25b475	-0.6472848
157	0xbcb98165	-0.022644708
158	0xbc021d18	-0.007941507
159	0xbe81b50f	-0.2533345
160	0xbe2d3b79	-0.16917218
161	0xbe72eff6	-0.2372435
162	0xbde25c17	-0.11052721
163	0x3e6efdb6	0.2333897
164	0x3e8d231c	0.2756585
165	0xbf457446	-0.77130544
166	0xbe7eeba4	-0.24894577
167	0xbd924883	-0.07142737
168	0x3de85145	0.11343626
169	0xbebe23da	-0.37136728
170	0x3e9ee494	0.31033766
171	0xbcfddaff	-0.030988215
172	0x3e8bb628	0.27287412
173	0x3b8dc521	0.004326478
174	0xbc045c05	-0.00807858
175	0xbefeb5cd	-0.49748078
176	0x3ed8af8a	0.42321426
177	0x3e8ff176	0.28113908
178	0x3d7aeb98	0.061259836
179	0xbe1fb13c	-0.15594953
180	0xbc34c44b	-0.011033128
181	0xbe3ba375	-0.18324073
182	0xbe52a3a5	-0.20570238
183	0xbe9bb3ce	-0.30410618
184	0x3ed1aaf1	0.4095073
185	0x3e02bcff	0.12767409
186	0xbec4f6b8	-0.3846948
187	0xbe26eb2b	-0.16300647
188	0xbe9e1e16	-0.3088233
189	0xbeb62d5c	-0.3558148
190	0xbe839b60	-0.2570448
191	0xbedc4848	-0.43023896
192	0xbd394c59	-0.045238826
193	0xbe78634f	-0.24256633
194	0x3ebbf1b3	0.3670784
195	0x3d214160	0.039368987
196	0x3dbdb82e	0.09263645
197	0xbf0c1b06	-0.54728734
198	0xbe1514dd	-0.1455874
199	0xbf08c74a	-0.5342909
200	0xbf6c00ba	-0.9218861
201	0x3e84453a	0.25834066
202	0xbe984755	-0.29741922
203	0xbebe9422	-0.3722239
204	0xbebd395f	-0.36957833
205	0x3eac40ac	0.3364309
206	0xbea3dac8	-0.32002854
207	0xbec1334a	-0.37734443
208	0xbe9238c8	-0.28558946
209	0xbe0c8a54	-0.13724643
210	0x3f3127aa	0.6920115
211	0x3b9f0bbc	0.004853694
212	0xbf45d478	-0.77277327
213	0xbf01e256	-0.50735986
214	0xbe7a68a4	-0.2445398
215	0x3daf8b88	0.08571535
216	0x3e66a940	0.22525501
217	0x3ec63ee5	0.3871986
218	0xbe0cd695	-0.13753732
219	0xbdb20de4	-0.08694056
220	0xbe9d48b8	-0.30719543
221	0xbf190eb3	-0.59788054
222	0x3d8f998c	0.070117086
223	0x3dcb2081	0.09918309
224	0xbe3fc60e	-0.18727896
225	0x3ca59d8b	0.020216724
226	0x3eb80731	0.35942987
227	0xbee6f36d	-0.45107594
228	0xbde3bf76	-0.11120503
229	0xbf0bfdc3	-0.54684085
230	0xbef371c1	-0.47547725
231	0xbb683311	-0.0035430829
232	0xbe1186a5	-0.14211519
233	0x3eb2476b	0.34820113
234	0xbeeb65c8	-0.4597609
235	0x3b52412d	0.0032082305
236	0xbf837ddc	-1.0272784
237	0xbf357d4f	-0.7089433
238	0xbe9b1efe	-0.30297083
239	0xbeb7683a	-0.35821706
240	0x3eaa4950	0.33259058
241	0xbe5b7475	-0.21431144
242	0xbd8eb1d3	-0.06967511
243	0xbe46299a	-0.19351807
244	0xbf196acc	-0.59928584
245	0x3e13c932	0.14432219
246	0xbf8620ba	-1.0478737
247	0xbe8c8fd4	-0.27453482
248	0xbfc4ab5d	-1.5364796
249	0xbed15f4c	-0.40893018
250	0xbd6b2588	-0.05740884
251	0xbe5d0461	-0.21583702
252	0xbe03228a	-0.12806144
253	0xbf13c42e	-0.5772122
254	0x3e59010c	0.21191806
255	0xbf071343	-0.52763766

conv2.bias f4 [64]
0	0xbe05afd4	-0.13055354
1	0xbf2adcef	-0.6674337
2	0x3e1470e8	0.14496195
3	0xbd5b1011	-0.05348212
4	0xbd82dc4e	-0.06389676
5	0xbea0ddea	-0.31419307
6	0xbe8e2f19	-0.27770308
7	0x3da1683d	0.0788121
8	0xbec253c3	-0.3795453
9	0x3e5cbeba	0.21557131
10	0xbe33530f	-0.17512153
11	0xbee4caaa	-0.4468587
12	0xbe886e60	-0.2664671
13	0xbc124080	-0.008926511
14	0xbea12aab	-0.31477866
15	0xbe898f5c	-0.26867187
16	0xbe9b6759	-0.30352286
17	0xbf09df71	-0.5385657
18	0x3f7078d0	0.93934345
19	0xbdc2b26c	-0.095066875
20	0xbe786692	-0.24257877
21	0xbe87617d	-0.26441565
22	0xbdaa78b5	-0.08323804
23	0xbc013d3e	-0.007888136
24	0xbee5d532	-0.44889218
25	0xbde377c1	-0.111068256
26	0xbdce2f1e	-0.10067581
27	0x3f0e9f2b	0.5571162
28	0xbef76b66	-0.48324126
29	0xbe3d3737	-0.18478094
30	0xbeaab471	-0.3334079
31	0xbdf184dd	-0.1179292
32	0xbe0a654e	-0.13515207
33	0xbec6c5a6	-0.3882267
34	0xbea2d75c	-0.3180493
35	0xbec2b57d	-0.3802909
36	0x3f782a07	0.9693913
37	0x3f7f897b	0.99819154
38	0xbebadf07	-0.3649828
39	0xbec837bb	-0.3910502
40	0xbf31880a	-0.69348204
41	0xbe4a2a15	-0.19742616
42	0xbe6b900e	-0.23004171
43	0xbdd78da7	-0.10525065
44	0xbded6a7a	-0.115925744
45	0x3eb275ee	0.34855598
46	0xbea4db99	-0.3219879
47	0xbf0cdfaf	-0.55028814
48	0xbd9ad451	-0.075600274
49	0xbea3e333	-0.32009277
50	0xbe930980	-0.28718185
51	0xbf06133b	-0.52373093
52	0x3ec96d5a	0.3934124
53	0xbe809656	-0.25114697
54	0xbe58eac2	-0.21183303
55	0xbef86d1b	-0.4852074
56	0xbeb9d116	-0.36292332
57	0xbdc6e12c	-0.09710917
58	0xbea3235c	-0.31862915
59	0xbf0c7791	-0.54869944
60	0xbea33d45	-0.31882682
61	0xbec70c03	-0.38876352
62	0x3e543e0d	0.20726795
63	0x3f24fc3d	0.64447385

fc1.weight f4 [128, 256]
0	0xbd65bf62	-0.05609072
1	0x3cd6fa83	0.0262425
2	0x3cad822d	0.021180237
3	0x3c16ee59	0.0092121
4	0xbd3be417	-0.04587182
5	0xbd3f393f	-0.046685454
6	0xbcd78ebc	-0.026313178
7	0xbd5f4c96	-0.054516397
8	0xbd1279e1	-0.035760764
9	0xbb1bd60a	-0.00237787
10	0xbd2f0d7f	-0.04273748
11	0xbda58e84	-0.08083823
12	0xbc85b10d	-0.016319776
13	0xbd9cb411	-0.076515324
14	0xbd4ddbc6	-0.05025842
15	0xbd5d72e5	-0.05406465
16	0xbce41e9e	-0.02784663
17	0xbd73cc34	-0.059520915
18	0xbd77ad38	-0.06046793
19	0x3cae75e6	0.021296453
20	0x3d51bb11	0.05120379
21	0x3c56ff1d	0.013122347
22	0xbc22d9fb	-0.009939666
23	0xbd05aba9	-0.03263441
24	0xbdc731a9	-0.09726269
25	0xbd4878a1	-0.048943166
26	0x3b158c21	0.002281912
27	0xbd20f708	-0.039298087
28	0xbd50fe03	-0.051023494
29	0x3d5ba9c1	0.053628687
30	0xbdad7a54	-0.08470598
31	0xbd533bec	-0.051570818
32	0xbdbbf4f2	-0.09177579
33	0xbd9a49aa	-0.075335816
34	0xbd419058	-0.047256798
35	0xbd60e9e5	-0.05491056
36	0xbc9704e7	-0.018434955
37	0xbdc0ee8d	-0.094205
38	0xbd6c8426	-0.057743214
39	0xbcd39307	-0.025826944
40	0xbd41378c	-0.047172114
41	0xbc5675b8	-0.01308959
42	0xbc6eff17	-0.014587185
43	0xbd87001c	-0.06591818
44	0x3beb6b42	0.007184417
45	0xbbe59afa	-0.007007
46	0x3caf7cb2	0.021421764
47	0xbd772b17	-0.060343828
48	0xbd534e2e	-0.05158823
49	0xbb96f9e3	-0.0046074255
50	0x3c1cd882	0.009573104
51	0xbd856d65	-0.06515006
52	0xbd3e1210	-0.046403944
53	0xbc4c2690	-0.012460366
54	0xbcb87644	-0.022517331
55	0xbc377c2c	-0.0111990385
56	0xbc5162a3	-0.0127798645
57	0x3c96882d	0.01837548
58	0x3cfe7084	0.031059511
59	0xbd847adc	-0.06468746
60	0xbd3b5008	-0.04573062
61	0xbd6914eb	-0.056904715
62	0xbc9fec85	-0.019521961
63	0xbd9ea07e	-0.07745455
64	0x3a2d21a9	0.0006604442
65	0x3cb51652	0.02210537
66	0xbd67072b	-0.05640332
67	0xbd9e7d4b	-0.077387415
68	0xbd2132c3	-0.03935505
69	0x3cbe8d54	0.02326075
70	0x3c42ec2c	0.011897128
71	0x3be6f8a0	0.0070486814
72	0xbd8c8f72	-0.068632975
73	0x3c2c6b37	0.010523609
74	0xbc467dd9	-0.012114965
75	0x3b2ca9ec	0.0026346399
76	0xbd890527	-0.06690436
77	0x3ca642f9	0.020295607
78	0xbd061bc1	-0.032741312
79	0x3c3017b7	0.010747842
80	0xbc948624	-0.01813037
81	0x3bceea25	0.0063145333
82	0x3c789f5e	0.015174715
83	0xbcd0ca59	-0.025487112
84	0xbd99fcbe	-0.0751891
85	0xbd9feaf3	-0.07808485
86	0x3c9b2e21	0.018942894
87	0xbd8435eb	-0.064555965
88	0xbd95c14a	-0.073122576
89	0xbd8e6280	-0.06952381
90	0xbd84cf0e	-0.06484805
91	0x3c4c0c01	0.012454034
92	0xbdae9f9c	-0.08526537
93	0xbd789ab2	-0.060694404
94	0xbd74acff	-0.059735294
95	0xbd9af02a	-0.07565339
96	0xbbe22680	-0.006901562
97	0xbd57514c	-0.052567765
98	0x3c6d388e	0.014478816
99	0x3c231190	0.009952918
100	0xbd76a846	-0.06021907
101	0x3b8a3f14	0.0042189453
102	0xbab7d0db	-0.0014024036
103	0x3d0b5333	0.03401489
104	0x3c70600c	0.014671337
105	0x3d615113	0.05500896
106	0x3c9e70e1	0.019340934
107	0x3cbe912f	0.023262588
108	0xbc1583e6	-0.009125685
109	0x3c68733c	0.01418763
110	0x3d5cce15	0.053907473
111	0xbd2bd6b4	-0.041952804
112	0x3c4bb7f9	0.012433999
113	0x3d4b4177	0.04962298
114	0x3c5b0e9d	0.013370183
115	0x3d64cbd4	0.05585845
116	0xbcba5a54	-0.02274815
117	0xbd6ec121	-0.05828965
118	0xbd9ab67a	-0.07554336
119	0xbd51f450	-0.051258385
120	0xbdc6041e	-0.09668754
121	0xbc5a52fc	-0.013325449
122	0xbdc03a90	-0.0938617
123	0xbd0594aa	-0.03261248
124	0x3d06716e	0.03282302
125	0xbbf0218e	-0.007328219
126	0x3b2065fc	0.002447485
127	0xbd1970d5	-0.03746112
128	0xbca7e996	-0.020497125
129	0xbcc3c968	-0.023899749
130	0x3b2ef65d	0.0026697137
131	0xbc935566	-0.017985057
132	0x3c958434	0.018251516
133	0x3d689052	0.05677826
134	0xbd7b77a4	-0.061393395
135	0xbda93d83	-0.082636856
136	0xbc44567e	-0.011983512
137	0xbd649ee6	-0.0558156
138	0x3c8a8f17	0.016913934
139	0xbd9cac11	-0.076500066
140	0xbd9f6057	-0.07782047
141	0xbd3dcf11	-0.046340052
142	0xbdaca6b8	-0.084302366
143	0xbd59a00b	-0.053131144
144	0xbdb0d1d2	-0.0863377
145	0xbd58ffd1	-0.05297834
146	0xbd417964	-0.047234908
147	0xbda1949a	-0.078896716
148	0x3c135ead	0.00899474
149	0x3cbe32b6	0.02321754
150	0xbda5ac8d	-0.08089552
151	0xbd4f14a6	-0.0505568
152	0xbcae982a	-0.021312792
153	0xbd127c94	-0.03576334
154	0x3b79c9d5	0.0038114686
155	0xbc640a48	-0.013918467
156	0xbd0c0816	-0.0341874
157	0xbd9d4666	-0.07679443
158	0xbd19fa8d	-0.03759246
159	0xbd09cacd	-0.03364067
160	0xbcba6feb	-0.022758445
161	0x3c48b22f	0.0122495135
162	0x3d4a0770	0.0493235
163	0xbbb6625c	-0.0055659246
164	0xbc4534aa	-0.012036482
165	0xbc61174a	-0.013738463
166	0xbcf80c6a	-0.030279357
167	0xbb362b2d	-0.002779673
168	0xbd8e1860	-0.06938243
169	0x3c815e13	0.015791928
170	0xbd91bae5	-0.071157254
171	0xbc35a6d9	-0.011087143
172	0xbd16dc55	-0.03683122
173	0xbcbdadf6	-0.02315424
174	0x3d2feeb3	0.04295225
175	0xbc9f3607	-0.019434942
176	0xbd89b8b5	-0.06724683
177	0xbdb28756	-0.087172195
178	0xbd6dd3fd	-0.058063496
179	0xbd9d0643	-0.0766721
180	0xbc612958	-0.013742767
181	0xbd960bfd	-0.07326505
182	0xbc94c20e	-0.018158939
183	0xbd80071f	-0.06251358
184	0x3c8a266b	0.016864022
185	0xbb9935fc	-0.004675625
186	0xbd810779	-0.063002534
187	0xbc1eb05e	-0.009685604
188	0xbc5a8260	-0.013336748
189	0xbd320f49	-0.04347161
190	0xbd21d471	-0.03950924
191	0x3c62d12b	0.013843815
192	0xbb40cd3c	-0.0029419204
193	0x3c821270	0.015877932
194	0x3cb41b4d	0.021985674
195	0xbd7cb86f	-0.061699327
196	0x3d5d25f1	0.053991262
197	0xbd45f8bf	-0.048332926
198	0xbacb9211	-0.0015531202
199	0xbc37c721	-0.01121691
200	0xbc013f3e	-0.007888613
201	0xbd5a6567	-0.05331936
202	0x3cd752a4	0.026284523
203	0xbccc4072	-0.024933074
204	0x3d655e3d	0.055998076
205	0xbc619fe4	-0.013771031
206	0x3c891d31	0.016737552
207	0xbba2a60b	-0.0049636415
208	0xbd70fa15	-0.058832247
209	0xbd015eef	-0.031584676
210	0xbd9ff47d	-0.07810304
211	0xbd98b4d5	-0.07456366
212	0xbc8a789c	-0.016903214
213	0xbd8df163	-0.069308065
214	0x3d5a0ed8	0.053236812
215	0xbd5d1dc6	-0.053983472
216	0xbd20c160	-0.039246917
217	0xbd517107	-0.051133182
218	0xbd252c83	-0.040325653
219	0xbd1cbfb4	-0.03826876
220	0xbd1336e1	-0.03594101
221	0x3bf9e8a9	0.007626612
222	0xbb27b6c0	-0.0025591105
223	0xbd06e717	-0.03293523
224	0x3c882e8a	0.016623754
225	0xbd0b5347	-0.034014966
226	0x3d15a66b	0.03653566
227	0xbd3ee845	-0.04660823
228	0xbd4f7782	-0.05065108
229	0x3d2514a4	0.040302888
230	0xb9ee3700	-0.00045435876
231	0x3cf23c2c	0.029569708
232	0xbd021461	-0.031757716
233	0x3cb868c6	0.022510897
234	0x3c1b26d9	0.009469711
235	0xbd65c34a	-0.056094445
236	0x3d6f1e3c	0.058378443
237	0x3b860ab3	0.004090631
238	0xbd3aa518	-0.045567602
239	0xbd4d2984	-0.05008842
240	0x3c9fc06b	0.019500932
241	0xbcb0a781	-0.021564247
242	0x3b8e2a63	0.004338549
243	0xbd7a8b23	-0.061167847
244	0xbcbe5677	-0.023234589
245	0xbd91b421	-0.07114435
246	0x3c4937b4	0.012281347
247	0xbd14c0c1	-0.036316637
248	0xbd8050bf	-0.06265401
249	0xbdbb7ffd	-0.09155271
250	0xbcd4bcf7	-0.025969012
251	0x3c879e43	0.016554957
252	0xbd8d61da	-0.06903429
253	0xbd86f98a	-0.065905645
254	0xbd7378c7	-0.059441354
255	0x3cbd7f58	0.023132011

fc1.bias f4 [128]
0	0xbdc42f6d	-0.09579358
1	0xbcb4c068	-0.022064403
2	0xbd6650df	-0.05622947
3	0x3d2a92da	0.041643955
4	0xbd39b897	-0.045342054
5	0xbdb7387d	-0.08946321
6	0x3d78d886	0.060753368
7	0xbde6e9cf	-0.11275064
8	0x3e560456	0.20900092
9	0xbd8d5646	-0.06901221
10	0xbd002610	-0.0312863
11	0x3f4f93f6	0.81085145
12	0xbb8b0538	-0.0042425655
13	0x3bf16810	0.0073671415
14	0xbc7cb46b	-0.015423874
15	0x3cc1af32	0.02364311
16	0xbd65a8d7	-0.05606922
17	0xbcc237c9	-0.023708241
18	0xbd48903c	-0.048965678
19	0x3bc91f46	0.0061377613
20	0xbbce36b3	-0.0062931417
21	0xbdaf5387	-0.085608535
22	0x3ca4e701	0.020129682
23	0x3e743a65	0.23850401
24	0xbd09150a	-0.03346733
25	0x3d859fcc	0.065246195
26	0xbd339099	-0.04383907
27	0xbdae9249	-0.085239954
28	0x3cd844cb	0.02639999
29	0x3bed5d26	0.00724377
30	0xbc831d39	-0.016005145
31	0x3ea404f8	0.3203504
32	0x3e349f9e	0.17639014
33	0xbde69fe9	-0.11260969
34	0x3c604456	0.013688168
35	0x3ca1cb11	0.01975015
36	0x3f985ff5	1.1904284
37	0x3f565a39	0.8373142
38	0x3f13471a	0.5753037
39	0x3e6f6127	0.23376904
40	0xbda65ccb	-0.081231676
41	0x3c9084c4	0.017641433
42	0xbd2cbc81	-0.04217196
43	0x3c89f45e	0.016840156
44	0xbd50499d	-0.050851453
45	0x3eaf9d16	0.34299535
46	0xbda9a973	-0.08284273
47	0x3ecc4229	0.39894226
48	0x3d55fcf8	0.052243203
49	0x3cdf37ae	0.02724823
50	0xbd2a9c5d	-0.041653026
51	0xbd603d7d	-0.05474614
52	0xbd02143e	-0.031757586
53	0xbcc35745	-0.023845324
54	0x3c927c44	0.01788152
55	0x3e090827	0.13382016
56	0xbd8abdcf	-0.06774484
57	0x3ead38d5	0.33832422
58	0x3dcf0e42	0.10110141
59	0x3f05f9bf	0.5233421
60	0x3c96fc28	0.018430784
61	0xbe0b716b	-0.13617484
62	0x3c96f4b7	0.018427236
63	0xbd300413	-0.042972635
64	0x3d3ffeaa	0.046873726
65	0xbd7d98a5	-0.06191315
66	0xbd79c27d	-0.060976494
67	0x3de24f37	0.11050265
68	0x3ca59fdc	0.020217828
69	0xbe804e67	-0.25059816
70	0xbc65279c	-0.013986494
71	0x3a6e446b	0.00090891746
72	0x3f977518	1.1832609
73	0xbbef9be8	-0.0073122866
74	0x3c808656	0.015689056
75	0xbd8b81f2	-0.068118945
76	0xbbb45b45	-0.0055040442
77	0x3f9a172d	1.2038323
78	0x3cf0897d	0.029362435
79	0xbcc852c6	-0.024453532
80	0x3f6bffce	0.921872
81	0xbda2499b	-0.079241954
82	0x3c6695a4	0.014073763
83	0x3e8ce377	0.27517292
84	0x3f1f3f87	0.6220631
85	0x3bf028a1	0.007329062
86	0x3e375af8	0.17905796
87	0x3f909009	1.1293956
88	0xbcec2f12	-0.028831039
89	0x3be142dd	0.006874426
90	0xbe2558bb	-0.16147129
91	0xbd684552	-0.056706734
92	0x3e7ef196	0.24896845
93	0xbd12c47e	-0.03583192
94	0xbd9023ec	-0.070381016
95	0x3e577a68	0.21042788
96	0x3ceeccff	0.029150484
97	0xbd973e35	-0.07384912
98	0x3d9320e0	0.07184005
99	0xbd3ab467	-0.0455822
100	0xbbb3457c	-0.0054709297
101	0xbd744c94	-0.059643343
102	0xbd804160	-0.06262469
103	0x3ed77e8d	0.42088738
104	0xbcac088a	-0.021000165
105	0xbda3d2fd	-0.07999227
106	0xbc287254	-0.010281164
107	0x3c919fa1	0.017776312
108	0x3b4b0117	0.0030975991
109	0x3d7fd1bd	0.06245588
110	0xbc4e198f	-0.012579336
111	0x3eea0004	0.45703137
112	0x3be382aa	0.0069430666
113	0xbcb74356	-0.022370975
114	0x3d313065	0.043259043
115	0xbdb9c3dd	-0.09070561
116	0xbfa1db53	-1.2645057
117	0x3c189f31	0.009315298
118	0xbd43b11d	-0.04777633
119	0xbb924e0e	-0.0044648713
120	0xbd73d095	-0.05952509
121	0xbd3759f7	-0.04476353
122	0xbd18429a	-0.03717289
123	0x3c05b3d8	0.008160554
124	0xbc99a264	-0.018754192
125	0x3e5974ab	0.21235912
126	0xbdb94f66	-0.09048347
127	0xbd98e5d7	-0.074657135

fc2.weight f4 [1, 128]
0	0xbd1c85b0	-0.03821343
1	0x3bdb52e9	0.0066932333
2	0xbb46aa3f	-0.0030313877
3	0xbdd6b9d4	-0.10484663
4	0x3c8f24ed	0.017473662
5	0x3ac3ee9b	0.0014948429
6	0x3de24877	0.11048978
7	0x3bae442a	0.0053181844
8	0xbf1d9db4	-0.6156876
9	0xbd724201	-0.059144977
10	0xbd822eb1	-0.06356562
11	0x3c17c481	0.009263159
12	0x3b2fabf8	0.0026805382
13	0x3d0aa6d3	0.033850502
14	0x3d462a69	0.04838029
15	0x3bc68225	0.006057995
16	0xbb8ebc6b	-0.0043559573
17	0xbc88f48a	-0.016718168
18	0xba0d0bcf	-0.0005380483
19	0xbc87dbbc	-0.01658427
20	0xbd2e8dd8	-0.04261574
21	0xbbba1cc6	-0.0056796996
22	0xbd33f036	-0.043930255
23	0xbd0fd0d9	-0.035111282
24	0xbd0c8cb5	-0.034313876
25	0xbc739425	-0.014866863
26	0x3d871a93	0.065968655
27	0x3cc3a95f	0.023884473
28	0x3c632324	0.013863359
29	0x3d82ddf0	0.063899875
30	0x3cd8c94a	0.02646317
31	0xbe94696d	-0.28986683
32	0xbe479cc1	-0.1949339
33	0xbb8bcdce	-0.004266477
34	0xbd91feb3	-0.07128658
35	0x3b59df36	0.0033244616
36	0x3e82c30f	0.25539443
37	0x3c70c824	0.014696155
38	0xbcb6e3f1	-0.022325488
39	0x3cad8b74	0.02118466
40	0x3cf3a390	0.029741079
41	0x3d93a60f	0.072094075
42	0xbb0ba913	-0.0021310493
43	0x3cbc9bb0	0.023023456
44	0x3f0d6e03	0.5524599
45	0x3a6a6927	0.00089420605
46	0x3c6d4507	0.014481789
47	0xbec0694d	-0.37580338
48	0xbd95bb04	-0.07311061
49	0x3c53a339	0.012917333
50	0x3cc756b2	0.024333332
51	0xbcf3de5f	-0.02976912
52	0x3d0f316d	0.034959245
53	0xbbc161d5	-0.005901555
54	0x3d697562	0.05699671
55	0x3cd5b4ab	0.026087126
56	0x3ccaa2d5	0.024735847
57	0xbf242d15	-0.6413129
58	0x3cba3efb	0.02273511
59	0x3c4c5d6e	0.012473447
60	0x3e45d1f1	0.19318368
61	0x3e8418ec	0.25800264
62	0x3d957c5b	0.072991095
63	0xbca010c4	-0.019539244
64	0x3cf97bac	0.03045448
65	0xbd1fb1fd	-0.038988102
66	0xbbc56c9f	-0.0060249115
67	0xbce9526c	-0.028481685
68	0xbb8f7e19	-0.0043790457
69	0x3e522056	0.20520148
70	0x3c5daeb1	0.013530419
71	0xbcae0fe4	-0.021247812
72	0x3e8229b6	0.25422448
73	0x3c322f75	0.010875572
74	0xbc89ed8e	-0.016836908
75	0xbc9c9181	-0.01911235
76	0xbc70940f	-0.014683737
77	0x3e6cf88b	0.23141687
78	0x3ce95e32	0.028487299
79	0xbd326e32	-0.04356212
80	0x3db15b05	0.08659939
81	0x3d119688	0.03554395
82	0x3cf1d042	0.02951825
83	0xbc2d2025	-0.010566746
84	0x3c024f42	0.007953467
85	0xbb82c8f9	-0.003991243
86	0xbc679ad1	-0.014136032
87	0x3e68a4e4	0.22719151
88	0xbc43cde1	-0.011950941
89	0x3cb13b60	0.021634758
90	0x3daab9ef	0.08336245
91	0x3c012fc5	0.007884924
92	0x3d4fb88c	0.050713107
93	0x3c3332fa	0.010937447
94	0xbc6e9e06	-0.014564043
95	0xbe755e33	-0.23961715
96	0xbb9cdb5e	-0.004786893
97	0xbd1d2560	-0.03836572
98	0xbb9a1093	-0.004701683
99	0x3d27c846	0.04096248
100	0x39b2be3c	0.0003409254
101	0x3c1c3056	0.009533009
102	0x3bdaa057	0.006671946
103	0x3cc997f2	0.024608586
104	0xbbb70619	-0.0055854437
105	0x3b9b47a9	0.004738767
106	0xbbae1c77	-0.005313452
107	0xbc4733cd	-0.012158346
108	0xbcba7686	-0.022761595
109	0x3d10c2cd	0.035342027
110	0xbd065875	-0.032799203
111	0x3ca435f6	0.020045262
112	0xbbee08e4	-0.0072642434
113	0xbba27d27	-0.004958767
114	0xbdf908c9	-0.12159879
115	0x3b9ad0c7	0.004724595
116	0xbe7567ba	-0.2396535
117	0xb86d5eab	-5.659337e-05
118	0x3abfaf9f	0.0014624483
119	0xbc30292d	-0.010752005
120	0x3ba62b31	0.005071067
121	0xbb151ee1	-0.0022754
122	0xbbdde746	-0.0067719547
123	0xbd7bb34c	-0.061450288
124	0xbb19ff38	-0.002349807
125	0xbe44cbda	-0.19218388
126	0x3dd710e8	0.105012715
127	0xb9dbaa5f	-0.0004189787
